…
        crop_border: 0
        test_y_channel: False
      ]
      ssim:[
        type: calculate_ssim
        crop_border: 0
        test_y_channel: False
      ]
    ]
  ]
  dist: False
  rank: 0
  world_size: 1
  auto_resume: False
  is_train: False

2026-04-16 10:10:46,333 INFO: Dataset [PairedOneToManyBilateralDataset] - ME is built.
2026-04-16 10:10:46,334 INFO: Number of test images in ME: 5905
2026-04-16 10:10:46,686 INFO: Network [RSNet] is created.
2026-04-16 10:10:47,002 INFO: Network: RSNet, with parameters: 26,374,474
2026-04-16 10:10:47,003 INFO: RSNet(
  (autoencoder): SimpleNetwork(
    (in_proj): Conv2d(3, 8, kernel_size=(1, 1), stride=(1, 1), bias=False)
    (enc): AttING(
      (conv1): Conv2d(8, 8, kernel_size=(1, 1), stride=(1, 1), bias=False)
      (conv2_1): Conv2d(4, 4, kernel_size=(3, 3), stride=(1, 1), padding=(1, 1), bias=False)
      (conv2_2): Conv2d(4, 4, kernel_size=(3, 3), stride=(1, 1), padding=(1, 1), bias=False)
      (instance): InstanceNorm2d(4, eps=1e-05, momentum=0.1, affine=True, track_running_stats=False)
      (avgpool): AdaptiveAvgPool2d(output_size=1)
      (process): Sequential(
        (0): Conv2d(8, 4, kernel_size=(3, 3), stride=(1, 1), padding=(1, 1))
        (1): LeakyReLU(negative_slope=0.1)
        (2): Conv2d(4, 8, kernel_size=(3, 3), stride=(1, 1), padding=(1, 1))
        (3): Sigmoid()
      )
    )
    (encoder_layers): ModuleList(
      (0): ModuleList(
        (0): Conv2d(8, 16, kernel_size=(1, 1), stride=(1, 1), bias=False)
        (1): Conv2d(16, 16, kernel_size=(3, 3), stride=(2, 2), padding=(1, 1), groups=16, bias=False)
        (2): Conv2d(16, 16, kernel_size=(1, 1), stride=(1, 1), bias=False)
      )
      (1): ModuleList(
        (0): Conv2d(16, 32, kernel_size=(1, 1), stride=(1, 1), bias=False)
        (1): Conv2d(32, 32, kernel_size=(3, 3), stride=(2, 2), padding=(1, 1), groups=32, bias=False)
        (2): Conv2d(32, 32, kernel_size=(1, 1), stride=(1, 1), bias=False)
      )
    )
    (decoder_layers): ModuleList(
      (0): ModuleList(
        (0): ConvTranspose2d(32, 16, kernel_size=(2, 2), stride=(2, 2))
        (1): Conv2d(16, 32, kernel_size=(1, 1), stride=(1, 1), bias=False)
        (2): Conv2d(32, 32, kernel_size=(3, 3), stride=(1, 1), padding=(1, 1), groups=32, bias=False)
        (3): Conv2d(32, 16, kernel_size=(1, 1), stride=(1, 1), bias=False)
      )
      (1): ModuleList(
        (0): ConvTranspose2d(16, 8, kernel_size=(2, 2), stride=(2, 2))
        (1): Conv2d(8, 16, kernel_size=(1, 1), stride=(1, 1), bias=False)
        (2): Conv2d(16, 16, kernel_size=(3, 3), stride=(1, 1), padding=(1, 1), groups=16, bias=False)
        (3): Conv2d(16, 8, kernel_size=(1, 1), stride=(1, 1), bias=False)
      )
    )
    (out_conv2): Conv2d(8, 3, kernel_size=(3, 3), stride=(1, 1), padding=(1, 1))
    (lrelu): LeakyReLU(negative_slope=0.1, inplace=True)
  )
  (sampler): MySampler(
    (generator): LightBackbone(
      (0): BasicBlock(
        (0): Conv2d(3, 8, kernel_size=(3, 3), stride=(2, 2), padding=(1, 1))
        (1): LeakyReLU(negative_slope=0.2)
        (2): InstanceNorm2d(8, eps=1e-05, momentum=0.1, affine=True, track_running_stats=False)
      )
      (1): BasicBlock(
        (0): Conv2d(8, 16, kernel_size=(3, 3), stride=(2, 2), padding=(1, 1))
        (1): LeakyReLU(negative_slope=0.2)
        (2): InstanceNorm2d(16, eps=1e-05, momentum=0.1, affine=True, track_running_stats=False)
      )
      (2): BasicBlock(
        (0): Conv2d(16, 32, kernel_size=(3, 3), stride=(2, 2), padding=(1, 1))
        (1): LeakyReLU(negative_slope=0.2)
        (2): InstanceNorm2d(32, eps=1e-05, momentum=0.1, affine=True, track_running_stats=False)
      )
      (3): BasicBlock(
        (0): Conv2d(32, 64, kernel_size=(3, 3), stride=(2, 2), padding=(1, 1))
        (1): LeakyReLU(negative_slope=0.2)
        (2): InstanceNorm2d(64, eps=1e-05, momentum=0.1, affine=True, track_running_stats=False)
      )
      (4): BasicBlock(
        (0): Conv2d(64, 64, kernel_size=(3, 3), stride=(2, 2), padding=(1, 1))
        (1): LeakyReLU(negative_slope=0.2)
      )
      (5): Dropout(p=0.5, inplace=False)
      (6): AdaptiveAvgPool2d(output_size=2)
    )
    (intervals_generator): Linear(in_features=256, out_features=510, bias=True)
    (transform): RGB_HVI()
  )
  (lut): SepLUT(
    (weight_generator): Restormer(
      (patch_embed): OverlapPatchEmbed(
        (proj): Conv2d(3, 48, kernel_size=(3, 3), stride=(1, 1), padding=(1, 1), bias=False)
      )
      (encoder_level1): Sequential(
        (0): TransformerBlock(
          (norm1): LayerNorm(
            (body): WithBias_LayerNorm()
          )
          (attn): Attention(
            (qkv): Conv2d(48, 144, kernel_size=(1, 1), stride=(1, 1), bias=False)
            (qkv_dwconv): Conv2d(144, 144, kernel_size=(3, 3), stride=(1, 1), padding=(1, 1), groups=144, bias=False)
            (project_out): Conv2d(48, 48, kernel_size=(1, 1), stride=(1, 1), bias=False)
          )
          (norm2): LayerNorm(
            (body): WithBias_LayerNorm()
          )
          (ffn): FeedForward(
            (project_in): Conv2d(48, 254, kernel_size=(1, 1), stride=(1, 1), bias=False)
            (dwconv): Conv2d(254, 254, kernel_size=(3, 3), stride=(1, 1), padding=(1, 1), groups=254, bias=False)
            (project_out): Conv2d(127, 48, kernel_size=(1, 1), stride=(1, 1), bias=False)
          )
        )
        (1): TransformerBlock(
          (norm1): LayerNorm(
            (body): WithBias_LayerNorm()
          )
          (attn): Attention(
            (qkv): Conv2d(48, 144, kernel_size=(1, 1), stride=(1, 1), bias=False)
            (qkv_dwconv): Conv2d(144, 144, kernel_size=(3, 3), stride=(1, 1), padding=(1, 1), groups=144, bias=False)
            (project_out): Conv2d(48, 48, kernel_size=(1, 1), stride=(1, 1), bias=False)
          )
          (norm2): LayerNorm(
            (body): WithBias_LayerNorm()
          )
          (ffn): FeedForward(
            (project_in): Conv2d(48, 254, kernel_size=(1, 1), stride=(1, 1), bias=False)
            (dwconv): Conv2d(254, 254, kernel_size=(3, 3), stride=(1, 1), padding=(1, 1), groups=254, bias=False)
            (project_out): Conv2d(127, 48, kernel_size=(1, 1), stride=(1, 1), bias=False)
          )
        )
        (2): TransformerBlock(
          (norm1): LayerNorm(
            (body): WithBias_LayerNorm()
          )
          (attn): Attention(
            (qkv): Conv2d(48, 144, kernel_size=(1, 1), stride=(1, 1), bias=False)
            (qkv_dwconv): Conv2d(144, 144, kernel_size=(3, 3), stride=(1, 1), padding=(1, 1), groups=144, bias=False)
            (project_out): Conv2d(48, 48, kernel_size=(1, 1), stride=(1, 1), bias=False)
          )
          (norm2): LayerNorm(
            (body): WithBias_LayerNorm()
          )
          (ffn): FeedForward(
            (project_in): Conv2d(48, 254, kernel_size=(1, 1), stride=(1, 1), bias=False)
            (dwconv): Conv2d(254, 254, kernel_size=(3, 3), stride=(1, 1), padding=(1, 1), groups=254, bias=False)
            (project_out): Conv2d(127, 48, kernel_size=(1, 1), stride=(1, 1), bias=False)
          )
        )
        (3): TransformerBlock(
          (norm1): LayerNorm(
            (body): WithBias_LayerNorm()
          )
          (attn): Attention(
            (qkv): Conv2d(48, 144, kernel_size=(1, 1), stride=(1, 1), bias=False)
            (qkv_dwconv): Conv2d(144, 144, kernel_size=(3, 3), stride=(1, 1), padding=(1, 1), groups=144, bias=False)
            (project_out): Conv2d(48, 48, kernel_size=(1, 1), stride=(1, 1), bias=False)
          )
          (norm2): LayerNorm(
            (body): WithBias_LayerNorm()
          )
          (ffn): FeedForward(
            (project_in): Conv2d(48, 254, kernel_size=(1, 1), stride=(1, 1), bias=False)
            (dwconv): Conv2d(254, 254, kernel_size=(3, 3), stride=(1, 1), padding=(1, 1), groups=254, bias=False)
            (project_out): Conv2d(127, 48, kernel_size=(1, 1), stride=(1, 1), bias=False)
          )
        )
      )
      (down1_2): Downsample(
        (body): Sequential(
          (0): Conv2d(48, 24, kernel_size=(3, 3), stride=(1, 1), padding=(1, 1), bias=False)
          (1): PixelUnshuffle(downscale_factor=2)
        )
      )
      (encoder_level2): Sequential(
        (0): TransformerBlock(
          (norm1): LayerNorm(
            (body): WithBias_LayerNorm()
          )
          (attn): Attention(
            (qkv): Conv2d(96, 288, kernel_size=(1, 1), stride=(1, 1), bias=False)
            (qkv_dwconv): Conv2d(288, 288, kernel_size=(3, 3), stride=(1, 1), padding=(1, 1), groups=288, bias=False)
            (project_out): Conv2d(96, 96, kernel_size=(1, 1), stride=(1, 1), bias=False)
          )
          (norm2): LayerNorm(
            (body): WithBias_LayerNorm()
          )
          (ffn): FeedForward(
            (project_in): Conv2d(96, 510, kernel_size=(1, 1), stride=(1, 1), bias=False)
            (dwconv): Conv2d(510, 510, kernel_size=(3, 3), stride=(1, 1), padding=(1, 1), groups=510, bias=False)
            (project_out): Conv2d(255, 96, kernel_size=(1, 1), stride=(1, 1), bias=False)
          )
        )
        (1): TransformerBlock(
          (norm1): LayerNorm(
            (body): WithBias_LayerNorm()
          )
          (attn): Attention(
            (qkv): Conv2d(96, 288, kernel_size=(1, 1), stride=(1, 1), bias=False)
            (qkv_dwconv): Conv2d(288, 288, kernel_size=(3, 3), stride=(1, 1), padding=(1, 1), groups=288, bias=False)
            (project_out): Conv2d(96, 96, kernel_size=(1, 1), stride=(1, 1), bias=False)
          )
          (norm2): LayerNorm(
            (body): WithBias_LayerNorm()
          )
          (ffn): FeedForward(
            (project_in): Conv2d(96, 510, kernel_size=(1, 1), stride=(1, 1), bias=False)
            (dwconv): Conv2d(510, 510, kernel_size=(3, 3), stride=(1, 1), padding=(1, 1), groups=510, bias=False)
            (project_out): Conv2d(255, 96, kernel_size=(1, 1), stride=(1, 1), bias=False)
          )
        )
        (2): TransformerBlock(
          (norm1): LayerNorm(
            (body): WithBias_LayerNorm()
          )
          (attn): Attention(
            (qkv): Conv2d(96, 288, kernel_size=(1, 1), stride=(1, 1), bias=False)
            (qkv_dwconv): Conv2d(288, 288, kernel_size=(3, 3), stride=(1, 1), padding=(1, 1), groups=288, bias=False)
            (project_out): Conv2d(96, 96, kernel_size=(1, 1), stride=(1, 1), bias=False)
          )
          (norm2): LayerNorm(
            (body): WithBias_LayerNorm()
          )
          (ffn): FeedForward(
            (project_in): Conv2d(96, 510, kernel_size=(1, 1), stride=(1, 1), bias=False)
            (dwconv): Conv2d(510, 510, kernel_size=(3, 3), stride=(1, 1), padding=(1, 1), groups=510, bias=False)
            (project_out): Conv2d(255, 96, kernel_size=(1, 1), stride=(1, 1), bias=False)
          )
        )
        (3): TransformerBlock(
          (norm1): LayerNorm(
            (body): WithBias_LayerNorm()
          )
          (attn): Attention(
            (qkv): Conv2d(96, 288, kernel_size=(1, 1), stride=(1, 1), bias=False)
            (qkv_dwconv): Conv2d(288, 288, kernel_size=(3, 3), stride=(1, 1), padding=(1, 1), groups=288, bias=False)
            (project_out): Conv2d(96, 96, kernel_size=(1, 1), stride=(1, 1), bias=False)
          )
          (norm2): LayerNorm(
            (body): WithBias_LayerNorm()
          )
          (ffn): FeedForward(
            (project_in): Conv2d(96, 510, kernel_size=(1, 1), stride=(1, 1), bias=False)
            (dwconv): Conv2d(510, 510, kernel_size=(3, 3), stride=(1, 1), padding=(1, 1), groups=510, bias=False)
            (project_out): Conv2d(255, 96, kernel_size=(1, 1), stride=(1, 1), bias=False)
          )
        )
        (4): TransformerBlock(
          (norm1): LayerNorm(
            (body): WithBias_LayerNorm()
          )
          (attn): Attention(
            (qkv): Conv2d(96, 288, kernel_size=(1, 1), stride=(1, 1), bias=False)
            (qkv_dwconv): Conv2d(288, 288, kernel_size=(3, 3), stride=(1, 1), padding=(1, 1), groups=288, bias=False)
            (project_out): Conv2d(96, 96, kernel_size=(1, 1), stride=(1, 1), bias=False)
          )
          (norm2): LayerNorm(
            (body): WithBias_LayerNorm()
          )
          (ffn): FeedForward(
            (project_in): Conv2d(96, 510, kernel_size=(1, 1), stride=(1, 1), bias=False)
            (dwconv): Conv2d(510, 510, kernel_size=(3, 3), stride=(1, 1), padding=(1, 1), groups=510, bias=False)
            (project_out): Conv2d(255, 96, kernel_size=(1, 1), stride=(1, 1), bias=False)
          )
        )
        (5): TransformerBlock(
          (norm1): LayerNorm(
            (body): WithBias_LayerNorm()
          )
          (attn): Attention(
            (qkv): Conv2d(96, 288, kernel_size=(1, 1), stride=(1, 1), bias=False)
            (qkv_dwconv): Conv2d(288, 288, kernel_size=(3, 3), stride=(1, 1), padding=(1, 1), groups=288, bias=False)
            (project_out): Conv2d(96, 96, kernel_size=(1, 1), stride=(1, 1), bias=False)
          )
          (norm2): LayerNorm(
            (body): WithBias_LayerNorm()
          )
          (ffn): FeedForward(
            (project_in): Conv2d(96, 510, kernel_size=(1, 1), stride=(1, 1), bias=False)
            (dwconv): Conv2d(510, 510, kernel_size=(3, 3), stride=(1, 1), padding=(1, 1), groups=510, bias=False)
            (project_out): Conv2d(255, 96, kernel_size=(1, 1), stride=(1, 1), bias=False)
          )
        )
      )
      (down2_3): Downsample(
        (body): Sequential(
          (0): Conv2d(96, 48, kernel_size=(3, 3), stride=(1, 1), padding=(1, 1), bias=False)
          (1): PixelUnshuffle(downscale_factor=2)
        )
      )
      (encoder_level3): Sequential(
        (0): TransformerBlock(
          (norm1): LayerNorm(
            (body): WithBias_LayerNorm()
          )
          (attn): Attention(
            (qkv): Conv2d(192, 576, kernel_size=(1, 1), stride=(1, 1), bias=False)
            (qkv_dwconv): Conv2d(576, 576, kernel_size=(3, 3), stride=(1, 1), padding=(1, 1), groups=576, bias=False)
            (project_out): Conv2d(192, 192, kernel_size=(1, 1), stride=(1, 1), bias=False)
          )
          (norm2): LayerNorm(
            (body): WithBias_LayerNorm()
          )
          (ffn): FeedForward(
            (project_in): Conv2d(192, 1020, kernel_size=(1, 1), stride=(1, 1), bias=False)
            (dwconv): Conv2d(1020, 1020, kernel_size=(3, 3), stride=(1, 1), padding=(1, 1), groups=1020, bias=False)
            (project_out): Conv2d(510, 192, kernel_size=(1, 1), stride=(1, 1), bias=False)
          )
        )
        (1): TransformerBlock(
          (norm1): LayerNorm(
            (body): WithBias_LayerNorm()
          )
          (attn): Attention(
            (qkv): Conv2d(192, 576, kernel_size=(1, 1), stride=(1, 1), bias=False)
            (qkv_dwconv): Conv2d(576, 576, kernel_size=(3, 3), stride=(1, 1), padding=(1, 1), groups=576, bias=False)
            (project_out): Conv2d(192, 192, kernel_size=(1, 1), stride=(1, 1), bias=False)
          )
          (norm2): LayerNorm(
            (body): WithBias_LayerNorm()
          )
          (ffn): FeedForward(
            (project_in): Conv2d(192, 1020, kernel_size=(1, 1), stride=(1, 1), bias=False)
            (dwconv): Conv2d(1020, 1020, kernel_size=(3, 3), stride=(1, 1), padding=(1, 1), groups=1020, bias=False)
            (project_out): Conv2d(510, 192, kernel_size=(1, 1), stride=(1, 1), bias=False)
          )
        )
        (2): TransformerBlock(
          (norm1): LayerNorm(
            (body): WithBias_LayerNorm()
          )
          (attn): Attention(
            (qkv): Conv2d(192, 576, kernel_size=(1, 1), stride=(1, 1), bias=False)
            (qkv_dwconv): Conv2d(576, 576, kernel_size=(3, 3), stride=(1, 1), padding=(1, 1), groups=576, bias=False)
            (project_out): Conv2d(192, 192, kernel_size=(1, 1), stride=(1, 1), bias=False)
          )
          (norm2): LayerNorm(
            (body): WithBias_LayerNorm()
          )
          (ffn): FeedForward(
            (project_in): Conv2d(192, 1020, kernel_size=(1, 1), stride=(1, 1), bias=False)
            (dwconv): Conv2d(1020, 1020, kernel_size=(3, 3), stride=(1, 1), padding=(1, 1), groups=1020, bias=False)
            (project_out): Conv2d(510, 192, kernel_size=(1, 1), stride=(1, 1), bias=False)
          )
        )
        (3): TransformerBlock(
          (norm1): LayerNorm(
            (body): WithBias_LayerNorm()
          )
          (attn): Attention(
            (qkv): Conv2d(192, 576, kernel_size=(1, 1), stride=(1, 1), bias=False)
            (qkv_dwconv): Conv2d(576, 576, kernel_size=(3, 3), stride=(1, 1), padding=(1, 1), groups=576, bias=False)
            (project_out): Conv2d(192, 192, kernel_size=(1, 1), stride=(1, 1), bias=False)
          )
          (norm2): LayerNorm(
            (body): WithBias_LayerNorm()
          )
          (ffn): FeedForward(
            (project_in): Conv2d(192, 1020, kernel_size=(1, 1), stride=(1, 1), bias=False)
            (dwconv): Conv2d(1020, 1020, kernel_size=(3, 3), stride=(1, 1), padding=(1, 1), groups=1020, bias=False)
            (project_out): Conv2d(510, 192, kernel_size=(1, 1), stride=(1, 1), bias=False)
          )
        )
        (4): TransformerBlock(
          (norm1): LayerNorm(
            (body): WithBias_LayerNorm()
          )
          (attn): Attention(
            (qkv): Conv2d(192, 576, kernel_size=(1, 1), stride=(1, 1), bias=False)
            (qkv_dwconv): Conv2d(576, 576, kernel_size=(3, 3), stride=(1, 1), padding=(1, 1), groups=576, bias=False)
            (project_out): Conv2d(192, 192, kernel_size=(1, 1), stride=(1, 1), bias=False)
          )
          (norm2): LayerNorm(
            (body): WithBias_LayerNorm()
          )
          (ffn): FeedForward(
            (project_in): Conv2d(192, 1020, kernel_size=(1, 1), stride=(1, 1), bias=False)
            (dwconv): Conv2d(1020, 1020, kernel_size=(3, 3), stride=(1, 1), padding=(1, 1), groups=1020, bias=False)
            (project_out): Conv2d(510, 192, kernel_size=(1, 1), stride=(1, 1), bias=False)
          )
        )
        (5): TransformerBlock(
          (norm1): LayerNorm(
            (body): WithBias_LayerNorm()
          )
          (attn): Attention(
            (qkv): Conv2d(192, 576, kernel_size=(1, 1), stride=(1, 1), bias=False)
            (qkv_dwconv): Conv2d(576, 576, kernel_size=(3, 3), stride=(1, 1), padding=(1, 1), groups=576, bias=False)
            (project_out): Conv2d(192, 192, kernel_size=(1, 1), stride=(1, 1), bias=False)
          )
          (norm2): LayerNorm(
            (body): WithBias_LayerNorm()
          )
          (ffn): FeedForward(
            (project_in): Conv2d(192, 1020, kernel_size=(1, 1), stride=(1, 1), bias=False)
            (dwconv): Conv2d(1020, 1020, kernel_size=(3, 3), stride=(1, 1), padding=(1, 1), groups=1020, bias=False)
            (project_out): Conv2d(510, 192, kernel_size=(1, 1), stride=(1, 1), bias=False)
          )
        )
      )
      (down3_4): Downsample(
        (body): Sequential(
          (0): Conv2d(192, 96, kernel_size=(3, 3), stride=(1, 1), padding=(1, 1), bias=False)
          (1): PixelUnshuffle(downscale_factor=2)
        )
      )
      (latent): Sequential(
        (0): TransformerBlock(
          (norm1): LayerNorm(
            (body): WithBias_LayerNorm()
          )
          (attn): Attention(
            (qkv): Conv2d(384, 1152, kernel_size=(1, 1), stride=(1, 1), bias=False)
            (qkv_dwconv): Conv2d(1152, 1152, kernel_size=(3, 3), stride=(1, 1), padding=(1, 1), groups=1152, bias=False)
            (project_out): Conv2d(384, 384, kernel_size=(1, 1), stride=(1, 1), bias=False)
          )
          (norm2): LayerNorm(
            (body): WithBias_LayerNorm()
          )
          (ffn): FeedForward(
            (project_in): Conv2d(384, 2042, kernel_size=(1, 1), stride=(1, 1), bias=False)
            (dwconv): Conv2d(2042, 2042, kernel_size=(3, 3), stride=(1, 1), padding=(1, 1), groups=2042, bias=False)
            (project_out): Conv2d(1021, 384, kernel_size=(1, 1), stride=(1, 1), bias=False)
          )
        )
        (1): TransformerBlock(
          (norm1): LayerNorm(
            (body): WithBias_LayerNorm()
          )
          (attn): Attention(
            (qkv): Conv2d(384, 1152, kernel_size=(1, 1), stride=(1, 1), bias=False)
            (qkv_dwconv): Conv2d(1152, 1152, kernel_size=(3, 3), stride=(1, 1), padding=(1, 1), groups=1152, bias=False)
            (project_out): Conv2d(384, 384, kernel_size=(1, 1), stride=(1, 1), bias=False)
          )
          (norm2): LayerNorm(
            (body): WithBias_LayerNorm()
          )
          (ffn): FeedForward(
            (project_in): Conv2d(384, 2042, kernel_size=(1, 1), stride=(1, 1), bias=False)
            (dwconv): Conv2d(2042, 2042, kernel_size=(3, 3), stride=(1, 1), padding=(1, 1), groups=2042, bias=False)
            (project_out): Conv2d(1021, 384, kernel_size=(1, 1), stride=(1, 1), bias=False)
          )
        )
        (2): TransformerBlock(
          (norm1): LayerNorm(
            (body): WithBias_LayerNorm()
          )
          (attn): Attention(
            (qkv): Conv2d(384, 1152, kernel_size=(1, 1), stride=(1, 1), bias=False)
            (qkv_dwconv): Conv2d(1152, 1152, kernel_size=(3, 3), stride=(1, 1), padding=(1, 1), groups=1152, bias=False)
            (project_out): Conv2d(384, 384, kernel_size=(1, 1), stride=(1, 1), bias=False)
          )
          (norm2): LayerNorm(
            (body): WithBias_LayerNorm()
          )
          (ffn): FeedForward(
            (project_in): Conv2d(384, 2042, kernel_size=(1, 1), stride=(1, 1), bias=False)
            (dwconv): Conv2d(2042, 2042, kernel_size=(3, 3), stride=(1, 1), padding=(1, 1), groups=2042, bias=False)
            (project_out): Conv2d(1021, 384, kernel_size=(1, 1), stride=(1, 1), bias=False)
          )
        )
        (3): TransformerBlock(
          (norm1): LayerNorm(
            (body): WithBias_LayerNorm()
          )
          (attn): Attention(
            (qkv): Conv2d(384, 1152, kernel_size=(1, 1), stride=(1, 1), bias=False)
            (qkv_dwconv): Conv2d(1152, 1152, kernel_size=(3, 3), stride=(1, 1), padding=(1, 1), groups=1152, bias=False)
            (project_out): Conv2d(384, 384, kernel_size=(1, 1), stride=(1, 1), bias=False)
          )
          (norm2): LayerNorm(
            (body): WithBias_LayerNorm()
          )
          (ffn): FeedForward(
            (project_in): Conv2d(384, 2042, kernel_size=(1, 1), stride=(1, 1), bias=False)
            (dwconv): Conv2d(2042, 2042, kernel_size=(3, 3), stride=(1, 1), padding=(1, 1), groups=2042, bias=False)
            (project_out): Conv2d(1021, 384, kernel_size=(1, 1), stride=(1, 1), bias=False)
          )
        )
        (4): TransformerBlock(
          (norm1): LayerNorm(
            (body): WithBias_LayerNorm()
          )
          (attn): Attention(
            (qkv): Conv2d(384, 1152, kernel_size=(1, 1), stride=(1, 1), bias=False)
            (qkv_dwconv): Conv2d(1152, 1152, kernel_size=(3, 3), stride=(1, 1), padding=(1, 1), groups=1152, bias=False)
            (project_out): Conv2d(384, 384, kernel_size=(1, 1), stride=(1, 1), bias=False)
          )
          (norm2): LayerNorm(
            (body): WithBias_LayerNorm()
          )
          (ffn): FeedForward(
            (project_in): Conv2d(384, 2042, kernel_size=(1, 1), stride=(1, 1), bias=False)
            (dwconv): Conv2d(2042, 2042, kernel_size=(3, 3), stride=(1, 1), padding=(1, 1), groups=2042, bias=False)
            (project_out): Conv2d(1021, 384, kernel_size=(1, 1), stride=(1, 1), bias=False)
          )
        )
        (5): TransformerBlock(
          (norm1): LayerNorm(
            (body): WithBias_LayerNorm()
          )
          (attn): Attention(
            (qkv): Conv2d(384, 1152, kernel_size=(1, 1), stride=(1, 1), bias=False)
            (qkv_dwconv): Conv2d(1152, 1152, kernel_size=(3, 3), stride=(1, 1), padding=(1, 1), groups=1152, bias=False)
            (project_out): Conv2d(384, 384, kernel_size=(1, 1), stride=(1, 1), bias=False)
          )
          (norm2): LayerNorm(
            (body): WithBias_LayerNorm()
          )
          (ffn): FeedForward(
            (project_in): Conv2d(384, 2042, kernel_size=(1, 1), stride=(1, 1), bias=False)
            (dwconv): Conv2d(2042, 2042, kernel_size=(3, 3), stride=(1, 1), padding=(1, 1), groups=2042, bias=False)
            (project_out): Conv2d(1021, 384, kernel_size=(1, 1), stride=(1, 1), bias=False)
          )
        )
        (6): TransformerBlock(
          (norm1): LayerNorm(
            (body): WithBias_LayerNorm()
          )
          (attn): Attention(
            (qkv): Conv2d(384, 1152, kernel_size=(1, 1), stride=(1, 1), bias=False)
            (qkv_dwconv): Conv2d(1152, 1152, kernel_size=(3, 3), stride=(1, 1), padding=(1, 1), groups=1152, bias=False)
            (project_out): Conv2d(384, 384, kernel_size=(1, 1), stride=(1, 1), bias=False)
          )
          (norm2): LayerNorm(
            (body): WithBias_LayerNorm()
          )
          (ffn): FeedForward(
            (project_in): Conv2d(384, 2042, kernel_size=(1, 1), stride=(1, 1), bias=False)
            (dwconv): Conv2d(2042, 2042, kernel_size=(3, 3), stride=(1, 1), padding=(1, 1), groups=2042, bias=False)
            (project_out): Conv2d(1021, 384, kernel_size=(1, 1), stride=(1, 1), bias=False)
          )
        )
        (7): TransformerBlock(
          (norm1): LayerNorm(
            (body): WithBias_LayerNorm()
          )
          (attn): Attention(
            (qkv): Conv2d(384, 1152, kernel_size=(1, 1), stride=(1, 1), bias=False)
            (qkv_dwconv): Conv2d(1152, 1152, kernel_size=(3, 3), stride=(1, 1), padding=(1, 1), groups=1152, bias=False)
            (project_out): Conv2d(384, 384, kernel_size=(1, 1), stride=(1, 1), bias=False)
          )
          (norm2): LayerNorm(
            (body): WithBias_LayerNorm()
          )
          (ffn): FeedForward(
            (project_in): Conv2d(384, 2042, kernel_size=(1, 1), stride=(1, 1), bias=False)
            (dwconv): Conv2d(2042, 2042, kernel_size=(3, 3), stride=(1, 1), padding=(1, 1), groups=2042, bias=False)
            (project_out): Conv2d(1021, 384, kernel_size=(1, 1), stride=(1, 1), bias=False)
          )
        )
      )
      (up4_3): Upsample(
        (body): Sequential(
          (0): Conv2d(384, 768, kernel_size=(3, 3), stride=(1, 1), padding=(1, 1), bias=False)
          (1): PixelShuffle(upscale_factor=2)
        )
      )
      (reduce_chan_level3): Conv2d(384, 192, kernel_size=(1, 1), stride=(1, 1), bias=False)
      (decoder_level3): Sequential(
        (0): TransformerBlock(
          (norm1): LayerNorm(
            (body): WithBias_LayerNorm()
          )
          (attn): Attention(
            (qkv): Conv2d(192, 576, kernel_size=(1, 1), stride=(1, 1), bias=False)
            (qkv_dwconv): Conv2d(576, 576, kernel_size=(3, 3), stride=(1, 1), padding=(1, 1), groups=576, bias=False)
            (project_out): Conv2d(192, 192, kernel_size=(1, 1), stride=(1, 1), bias=False)
          )
          (norm2): LayerNorm(
            (body): WithBias_LayerNorm()
          )
          (ffn): FeedForward(
            (project_in): Conv2d(192, 1020, kernel_size=(1, 1), stride=(1, 1), bias=False)
            (dwconv): Conv2d(1020, 1020, kernel_size=(3, 3), stride=(1, 1), padding=(1, 1), groups=1020, bias=False)
            (project_out): Conv2d(510, 192, kernel_size=(1, 1), stride=(1, 1), bias=False)
          )
        )
        (1): TransformerBlock(
          (norm1): LayerNorm(
            (body): WithBias_LayerNorm()
          )
          (attn): Attention(
            (qkv): Conv2d(192, 576, kernel_size=(1, 1), stride=(1, 1), bias=False)
            (qkv_dwconv): Conv2d(576, 576, kernel_size=(3, 3), stride=(1, 1), padding=(1, 1), groups=576, bias=False)
            (project_out): Conv2d(192, 192, kernel_size=(1, 1), stride=(1, 1), bias=False)
          )
          (norm2): LayerNorm(
            (body): WithBias_LayerNorm()
          )
          (ffn): FeedForward(
            (project_in): Conv2d(192, 1020, kernel_size=(1, 1), stride=(1, 1), bias=False)
            (dwconv): Conv2d(1020, 1020, kernel_size=(3, 3), stride=(1, 1), padding=(1, 1), groups=1020, bias=False)
            (project_out): Conv2d(510, 192, kernel_size=(1, 1), stride=(1, 1), bias=False)
          )
        )
        (2): TransformerBlock(
          (norm1): LayerNorm(
            (body): WithBias_LayerNorm()
          )
          (attn): Attention(
            (qkv): Conv2d(192, 576, kernel_size=(1, 1), stride=(1, 1), bias=False)
            (qkv_dwconv): Conv2d(576, 576, kernel_size=(3, 3), stride=(1, 1), padding=(1, 1), groups=576, bias=False)
            (project_out): Conv2d(192, 192, kernel_size=(1, 1), stride=(1, 1), bias=False)
          )
          (norm2): LayerNorm(
            (body): WithBias_LayerNorm()
          )
          (ffn): FeedForward(
            (project_in): Conv2d(192, 1020, kernel_size=(1, 1), stride=(1, 1), bias=False)
            (dwconv): Conv2d(1020, 1020, kernel_size=(3, 3), stride=(1, 1), padding=(1, 1), groups=1020, bias=False)
            (project_out): Conv2d(510, 192, kernel_size=(1, 1), stride=(1, 1), bias=False)
          )
        )
        (3): TransformerBlock(
          (norm1): LayerNorm(
            (body): WithBias_LayerNorm()
          )
          (attn): Attention(
            (qkv): Conv2d(192, 576, kernel_size=(1, 1), stride=(1, 1), bias=False)
            (qkv_dwconv): Conv2d(576, 576, kernel_size=(3, 3), stride=(1, 1), padding=(1, 1), groups=576, bias=False)
            (project_out): Conv2d(192, 192, kernel_size=(1, 1), stride=(1, 1), bias=False)
          )
          (norm2): LayerNorm(
            (body): WithBias_LayerNorm()
          )
          (ffn): FeedForward(
            (project_in): Conv2d(192, 1020, kernel_size=(1, 1), stride=(1, 1), bias=False)
            (dwconv): Conv2d(1020, 1020, kernel_size=(3, 3), stride=(1, 1), padding=(1, 1), groups=1020, bias=False)
            (project_out): Conv2d(510, 192, kernel_size=(1, 1), stride=(1, 1), bias=False)
          )
        )
        (4): TransformerBlock(
          (norm1): LayerNorm(
            (body): WithBias_LayerNorm()
          )
          (attn): Attention(
            (qkv): Conv2d(192, 576, kernel_size=(1, 1), stride=(1, 1), bias=False)
            (qkv_dwconv): Conv2d(576, 576, kernel_size=(3, 3), stride=(1, 1), padding=(1, 1), groups=576, bias=False)
            (project_out): Conv2d(192, 192, kernel_size=(1, 1), stride=(1, 1), bias=False)
          )
          (norm2): LayerNorm(
            (body): WithBias_LayerNorm()
          )
          (ffn): FeedForward(
            (project_in): Conv2d(192, 1020, kernel_size=(1, 1), stride=(1, 1), bias=False)
            (dwconv): Conv2d(1020, 1020, kernel_size=(3, 3), stride=(1, 1), padding=(1, 1), groups=1020, bias=False)
            (project_out): Conv2d(510, 192, kernel_size=(1, 1), stride=(1, 1), bias=False)
          )
        )
        (5): TransformerBlock(
          (norm1): LayerNorm(
            (body): WithBias_LayerNorm()
          )
          (attn): Attention(
            (qkv): Conv2d(192, 576, kernel_size=(1, 1), stride=(1, 1), bias=False)
            (qkv_dwconv): Conv2d(576, 576, kernel_size=(3, 3), stride=(1, 1), padding=(1, 1), groups=576, bias=False)
            (project_out): Conv2d(192, 192, kernel_size=(1, 1), stride=(1, 1), bias=False)
          )
          (norm2): LayerNorm(
            (body): WithBias_LayerNorm()
          )
          (ffn): FeedForward(
            (project_in): Conv2d(192, 1020, kernel_size=(1, 1), stride=(1, 1), bias=False)
            (dwconv): Conv2d(1020, 1020, kernel_size=(3, 3), stride=(1, 1), padding=(1, 1), groups=1020, bias=False)
            (project_out): Conv2d(510, 192, kernel_size=(1, 1), stride=(1, 1), bias=False)
          )
        )
      )
      (up3_2): Upsample(
        (body): Sequential(
          (0): Conv2d(192, 384, kernel_size=(3, 3), stride=(1, 1), padding=(1, 1), bias=False)
          (1): PixelShuffle(upscale_factor=2)
        )
      )
      (reduce_chan_level2): Conv2d(192, 96, kernel_size=(1, 1), stride=(1, 1), bias=False)
      (decoder_level2): Sequential(
        (0): TransformerBlock(
          (norm1): LayerNorm(
            (body): WithBias_LayerNorm()
          )
          (attn): Attention(
            (qkv): Conv2d(96, 288, kernel_size=(1, 1), stride=(1, 1), bias=False)
            (qkv_dwconv): Conv2d(288, 288, kernel_size=(3, 3), stride=(1, 1), padding=(1, 1), groups=288, bias=False)
            (project_out): Conv2d(96, 96, kernel_size=(1, 1), stride=(1, 1), bias=False)
          )
          (norm2): LayerNorm(
            (body): WithBias_LayerNorm()
          )
          (ffn): FeedForward(
            (project_in): Conv2d(96, 510, kernel_size=(1, 1), stride=(1, 1), bias=False)
            (dwconv): Conv2d(510, 510, kernel_size=(3, 3), stride=(1, 1), padding=(1, 1), groups=510, bias=False)
            (project_out): Conv2d(255, 96, kernel_size=(1, 1), stride=(1, 1), bias=False)
          )
        )
        (1): TransformerBlock(
          (norm1): LayerNorm(
            (body): WithBias_LayerNorm()
          )
          (attn): Attention(
            (qkv): Conv2d(96, 288, kernel_size=(1, 1), stride=(1, 1), bias=False)
            (qkv_dwconv): Conv2d(288, 288, kernel_size=(3, 3), stride=(1, 1), padding=(1, 1), groups=288, bias=False)
            (project_out): Conv2d(96, 96, kernel_size=(1, 1), stride=(1, 1), bias=False)
          )
          (norm2): LayerNorm(
            (body): WithBias_LayerNorm()
          )
          (ffn): FeedForward(
            (project_in): Conv2d(96, 510, kernel_size=(1, 1), stride=(1, 1), bias=False)
            (dwconv): Conv2d(510, 510, kernel_size=(3, 3), stride=(1, 1), padding=(1, 1), groups=510, bias=False)
            (project_out): Conv2d(255, 96, kernel_size=(1, 1), stride=(1, 1), bias=False)
          )
        )
        (2): TransformerBlock(
          (norm1): LayerNorm(
            (body): WithBias_LayerNorm()
          )
          (attn): Attention(
            (qkv): Conv2d(96, 288, kernel_size=(1, 1), stride=(1, 1), bias=False)
            (qkv_dwconv): Conv2d(288, 288, kernel_size=(3, 3), stride=(1, 1), padding=(1, 1), groups=288, bias=False)
            (project_out): Conv2d(96, 96, kernel_size=(1, 1), stride=(1, 1), bias=False)
          )
          (norm2): LayerNorm(
            (body): WithBias_LayerNorm()
          )
          (ffn): FeedForward(
            (project_in): Conv2d(96, 510, kernel_size=(1, 1), stride=(1, 1), bias=False)
            (dwconv): Conv2d(510, 510, kernel_size=(3, 3), stride=(1, 1), padding=(1, 1), groups=510, bias=False)
            (project_out): Conv2d(255, 96, kernel_size=(1, 1), stride=(1, 1), bias=False)
          )
        )
        (3): TransformerBlock(
          (norm1): LayerNorm(
            (body): WithBias_LayerNorm()
          )
          (attn): Attention(
            (qkv): Conv2d(96, 288, kernel_size=(1, 1), stride=(1, 1), bias=False)
            (qkv_dwconv): Conv2d(288, 288, kernel_size=(3, 3), stride=(1, 1), padding=(1, 1), groups=288, bias=False)
            (project_out): Conv2d(96, 96, kernel_size=(1, 1), stride=(1, 1), bias=False)
          )
          (norm2): LayerNorm(
            (body): WithBias_LayerNorm()
          )
          (ffn): FeedForward(
            (project_in): Conv2d(96, 510, kernel_size=(1, 1), stride=(1, 1), bias=False)
            (dwconv): Conv2d(510, 510, kernel_size=(3, 3), stride=(1, 1), padding=(1, 1), groups=510, bias=False)
            (project_out): Conv2d(255, 96, kernel_size=(1, 1), stride=(1, 1), bias=False)
          )
        )
        (4): TransformerBlock(
          (norm1): LayerNorm(
            (body): WithBias_LayerNorm()
          )
          (attn): Attention(
            (qkv): Conv2d(96, 288, kernel_size=(1, 1), stride=(1, 1), bias=False)
            (qkv_dwconv): Conv2d(288, 288, kernel_size=(3, 3), stride=(1, 1), padding=(1, 1), groups=288, bias=False)
            (project_out): Conv2d(96, 96, kernel_size=(1, 1), stride=(1, 1), bias=False)
          )
          (norm2): LayerNorm(
            (body): WithBias_LayerNorm()
          )
          (ffn): FeedForward(
            (project_in): Conv2d(96, 510, kernel_size=(1, 1), stride=(1, 1), bias=False)
            (dwconv): Conv2d(510, 510, kernel_size=(3, 3), stride=(1, 1), padding=(1, 1), groups=510, bias=False)
            (project_out): Conv2d(255, 96, kernel_size=(1, 1), stride=(1, 1), bias=False)
          )
        )
        (5): TransformerBlock(
          (norm1): LayerNorm(
            (body): WithBias_LayerNorm()
          )
          (attn): Attention(
            (qkv): Conv2d(96, 288, kernel_size=(1, 1), stride=(1, 1), bias=False)
            (qkv_dwconv): Conv2d(288, 288, kernel_size=(3, 3), stride=(1, 1), padding=(1, 1), groups=288, bias=False)
            (project_out): Conv2d(96, 96, kernel_size=(1, 1), stride=(1, 1), bias=False)
          )
          (norm2): LayerNorm(
            (body): WithBias_LayerNorm()
          )
          (ffn): FeedForward(
            (project_in): Conv2d(96, 510, kernel_size=(1, 1), stride=(1, 1), bias=False)
            (dwconv): Conv2d(510, 510, kernel_size=(3, 3), stride=(1, 1), padding=(1, 1), groups=510, bias=False)
            (project_out): Conv2d(255, 96, kernel_size=(1, 1), stride=(1, 1), bias=False)
          )
        )
      )
      (up2_1): Upsample(
        (body): Sequential(
          (0): Conv2d(96, 192, kernel_size=(3, 3), stride=(1, 1), padding=(1, 1), bias=False)
          (1): PixelShuffle(upscale_factor=2)
        )
      )
      (decoder_level1): Sequential(
        (0): TransformerBlock(
          (norm1): LayerNorm(
            (body): WithBias_LayerNorm()
          )
          (attn): Attention(
            (qkv): Conv2d(96, 288, kernel_size=(1, 1), stride=(1, 1), bias=False)
            (qkv_dwconv): Conv2d(288, 288, kernel_size=(3, 3), stride=(1, 1), padding=(1, 1), groups=288, bias=False)
            (project_out): Conv2d(96, 96, kernel_size=(1, 1), stride=(1, 1), bias=False)
          )
          (norm2): LayerNorm(
            (body): WithBias_LayerNorm()
          )
          (ffn): FeedForward(
            (project_in): Conv2d(96, 510, kernel_size=(1, 1), stride=(1, 1), bias=False)
            (dwconv): Conv2d(510, 510, kernel_size=(3, 3), stride=(1, 1), padding=(1, 1), groups=510, bias=False)
            (project_out): Conv2d(255, 96, kernel_size=(1, 1), stride=(1, 1), bias=False)
          )
        )
        (1): TransformerBlock(
          (norm1): LayerNorm(
            (body): WithBias_LayerNorm()
          )
          (attn): Attention(
            (qkv): Conv2d(96, 288, kernel_size=(1, 1), stride=(1, 1), bias=False)
            (qkv_dwconv): Conv2d(288, 288, kernel_size=(3, 3), stride=(1, 1), padding=(1, 1), groups=288, bias=False)
            (project_out): Conv2d(96, 96, kernel_size=(1, 1), stride=(1, 1), bias=False)
          )
          (norm2): LayerNorm(
            (body): WithBias_LayerNorm()
          )
          (ffn): FeedForward(
            (project_in): Conv2d(96, 510, kernel_size=(1, 1), stride=(1, 1), bias=False)
            (dwconv): Conv2d(510, 510, kernel_size=(3, 3), stride=(1, 1), padding=(1, 1), groups=510, bias=False)
            (project_out): Conv2d(255, 96, kernel_size=(1, 1), stride=(1, 1), bias=False)
          )
        )
        (2): TransformerBlock(
          (norm1): LayerNorm(
            (body): WithBias_LayerNorm()
          )
          (attn): Attention(
            (qkv): Conv2d(96, 288, kernel_size=(1, 1), stride=(1, 1), bias=False)
            (qkv_dwconv): Conv2d(288, 288, kernel_size=(3, 3), stride=(1, 1), padding=(1, 1), groups=288, bias=False)
            (project_out): Conv2d(96, 96, kernel_size=(1, 1), stride=(1, 1), bias=False)
          )
          (norm2): LayerNorm(
            (body): WithBias_LayerNorm()
          )
          (ffn): FeedForward(
            (project_in): Conv2d(96, 510, kernel_size=(1, 1), stride=(1, 1), bias=False)
            (dwconv): Conv2d(510, 510, kernel_size=(3, 3), stride=(1, 1), padding=(1, 1), groups=510, bias=False)
            (project_out): Conv2d(255, 96, kernel_size=(1, 1), stride=(1, 1), bias=False)
          )
        )
        (3): TransformerBlock(
          (norm1): LayerNorm(
            (body): WithBias_LayerNorm()
          )
          (attn): Attention(
            (qkv): Conv2d(96, 288, kernel_size=(1, 1), stride=(1, 1), bias=False)
            (qkv_dwconv): Conv2d(288, 288, kernel_size=(3, 3), stride=(1, 1), padding=(1, 1), groups=288, bias=False)
            (project_out): Conv2d(96, 96, kernel_size=(1, 1), stride=(1, 1), bias=False)
          )
          (norm2): LayerNorm(
            (body): WithBias_LayerNorm()
          )
          (ffn): FeedForward(
            (project_in): Conv2d(96, 510, kernel_size=(1, 1), stride=(1, 1), bias=False)
            (dwconv): Conv2d(510, 510, kernel_size=(3, 3), stride=(1, 1), padding=(1, 1), groups=510, bias=False)
            (project_out): Conv2d(255, 96, kernel_size=(1, 1), stride=(1, 1), bias=False)
          )
        )
      )
      (refinement): Sequential(
        (0): TransformerBlock(
          (norm1): LayerNorm(
            (body): WithBias_LayerNorm()
          )
          (attn): Attention(
            (qkv): Conv2d(96, 288, kernel_size=(1, 1), stride=(1, 1), bias=False)
            (qkv_dwconv): Conv2d(288, 288, kernel_size=(3, 3), stride=(1, 1), padding=(1, 1), groups=288, bias=False)
            (project_out): Conv2d(96, 96, kernel_size=(1, 1), stride=(1, 1), bias=False)
          )
          (norm2): LayerNorm(
            (body): WithBias_LayerNorm()
          )
          (ffn): FeedForward(
            (project_in): Conv2d(96, 510, kernel_size=(1, 1), stride=(1, 1), bias=False)
            (dwconv): Conv2d(510, 510, kernel_size=(3, 3), stride=(1, 1), padding=(1, 1), groups=510, bias=False)
            (project_out): Conv2d(255, 96, kernel_size=(1, 1), stride=(1, 1), bias=False)
          )
        )
        (1): TransformerBlock(
          (norm1): LayerNorm(
            (body): WithBias_LayerNorm()
          )
          (attn): Attention(
            (qkv): Conv2d(96, 288, kernel_size=(1, 1), stride=(1, 1), bias=False)
            (qkv_dwconv): Conv2d(288, 288, kernel_size=(3, 3), stride=(1, 1), padding=(1, 1), groups=288, bias=False)
            (project_out): Conv2d(96, 96, kernel_size=(1, 1), stride=(1, 1), bias=False)
          )
          (norm2): LayerNorm(
            (body): WithBias_LayerNorm()
          )
          (ffn): FeedForward(
            (project_in): Conv2d(96, 510, kernel_size=(1, 1), stride=(1, 1), bias=False)
            (dwconv): Conv2d(510, 510, kernel_size=(3, 3), stride=(1, 1), padding=(1, 1), groups=510, bias=False)
            (project_out): Conv2d(255, 96, kernel_size=(1, 1), stride=(1, 1), bias=False)
          )
        )
        (2): TransformerBlock(
          (norm1): LayerNorm(
            (body): WithBias_LayerNorm()
          )
          (attn): Attention(
            (qkv): Conv2d(96, 288, kernel_size=(1, 1), stride=(1, 1), bias=False)
            (qkv_dwconv): Conv2d(288, 288, kernel_size=(3, 3), stride=(1, 1), padding=(1, 1), groups=288, bias=False)
            (project_out): Conv2d(96, 96, kernel_size=(1, 1), stride=(1, 1), bias=False)
          )
          (norm2): LayerNorm(
            (body): WithBias_LayerNorm()
          )
          (ffn): FeedForward(
            (project_in): Conv2d(96, 510, kernel_size=(1, 1), stride=(1, 1), bias=False)
            (dwconv): Conv2d(510, 510, kernel_size=(3, 3), stride=(1, 1), padding=(1, 1), groups=510, bias=False)
            (project_out): Conv2d(255, 96, kernel_size=(1, 1), stride=(1, 1), bias=False)
          )
        )
        (3): TransformerBlock(
          (norm1): LayerNorm(
            (body): WithBias_LayerNorm()
          )
          (attn): Attention(
            (qkv): Conv2d(96, 288, kernel_size=(1, 1), stride=(1, 1), bias=False)
            (qkv_dwconv): Conv2d(288, 288, kernel_size=(3, 3), stride=(1, 1), padding=(1, 1), groups=288, bias=False)
            (project_out): Conv2d(96, 96, kernel_size=(1, 1), stride=(1, 1), bias=False)
          )
          (norm2): LayerNorm(
            (body): WithBias_LayerNorm()
          )
          (ffn): FeedForward(
            (project_in): Conv2d(96, 510, kernel_size=(1, 1), stride=(1, 1), bias=False)
            (dwconv): Conv2d(510, 510, kernel_size=(3, 3), stride=(1, 1), padding=(1, 1), groups=510, bias=False)
            (project_out): Conv2d(255, 96, kernel_size=(1, 1), stride=(1, 1), bias=False)
          )
        )
      )
      (output): Conv2d(96, 3, kernel_size=(3, 3), stride=(1, 1), padding=(1, 1), bias=False)
    )
    (lut3d_generator): LUT3DGenerator(
      (weights_generator): Linear(in_features=32, out_features=3, bias=True)
      (basis_luts_bank): Linear(in_features=3, out_features=14739, bias=False)
    )
  )
  (fusion): TransformerBlock_Ours(
    (conv1): Conv2d(8, 8, kernel_size=(3, 3), stride=(1, 1), padding=(1, 1))
    (conv2): Conv2d(3, 8, kernel_size=(3, 3), stride=(1, 1), padding=(1, 1))
    (norm1): LayerNorm(
      (body): WithBias_LayerNorm()
    )
    (attn): Attention(
      (kv): Conv2d(8, 16, kernel_size=(1, 1), stride=(1, 1), bias=False)
      (kv_dwconv): Conv2d(16, 16, kernel_size=(3, 3), stride=(1, 1), padding=(1, 1), groups=16, bias=False)
      (q): Conv2d(8, 8, kernel_size=(1, 1), stride=(1, 1), bias=False)
      (q_dwconv): Conv2d(8, 8, kernel_size=(3, 3), stride=(1, 1), padding=(1, 1), bias=False)
      (project_out): Conv2d(8, 8, kernel_size=(1, 1), stride=(1, 1), bias=False)
    )
    (norm2): LayerNorm(
      (body): WithBias_LayerNorm()
    )
    (ffn): FeedForward(
      (project_in): Conv2d(8, 32, kernel_size=(1, 1), stride=(1, 1), bias=False)
      (dwconv): Conv2d(32, 32, kernel_size=(3, 3), stride=(1, 1), padding=(1, 1), groups=32, bias=False)
      (project_out): Conv2d(16, 8, kernel_size=(1, 1), stride=(1, 1), bias=False)
    )
  )
  (map): Conv2d(8, 3, kernel_size=(3, 3), stride=(1, 1), padding=(1, 1))
  (uncert_head): DepthUncertaintyHeadSingle(
    (depth_proj): Conv2d(1, 3, kernel_size=(3, 3), stride=(1, 1), padding=(1, 1))
    (var_conv): Sequential(
      (0): Conv2d(3, 3, kernel_size=(3, 3), stride=(1, 1), padding=(1, 1))
      (1): ELU(alpha=1.0)
      (2): Conv2d(3, 3, kernel_size=(3, 3), stride=(1, 1), padding=(1, 1))
    )
  )
  (transform): RGB_HVI()
)
2026-04-16 10:10:47,146 INFO: Loading RSNet model from /root/autodl-tmp/RSNet/experiments/MSEC_weights.pth, with param key: [params_ema].
2026-04-16 10:10:47,208 INFO: Model [FTModel2] is created.
2026-04-16 10:10:47,209 INFO: Testing ME...
